…
2022-12-24 15:38:49,081:[P:36664]:Rank[0/1] => init weight of Linear from trunc norm
2022-12-24 15:38:49,083:[P:36664]:Rank[0/1] => init bias of Linear to zeros
2022-12-24 15:38:49,083:[P:36664]:Rank[0/1] => init weight of Linear from trunc norm
2022-12-24 15:38:49,088:[P:36664]:Rank[0/1] => init bias of Linear to zeros
2022-12-24 15:38:49,088:[P:36664]:Rank[0/1] => init weight of Linear from trunc norm
2022-12-24 15:38:49,093:[P:36664]:Rank[0/1] => init bias of Linear to zeros
2022-12-24 15:38:52,734:[P:36664]:Rank[0/1] => ConvolutionalVisionTransformer(
  (stage0): VisionTransformer(
    (patch_embed): ConvEmbed(
      (proj): Conv2d(3, 64, kernel_size=(7, 7), stride=(4, 4), padding=(2, 2))
      (norm): LayerNorm((64,), eps=1e-05, elementwise_affine=True)
    )
    (pos_drop): Dropout(p=0.0, inplace=False)
    (blocks): ModuleList(
      (0): Block(
        (norm1): LayerNorm((64,), eps=1e-05, elementwise_affine=True)
        (attn): Attention(
          (conv_proj_q): Sequential(
            (conv): Conv2d(64, 64, kernel_size=(3, 3), stride=(1, 1), padding=(1, 1), groups=64, bias=False)
            (bn): BatchNorm2d(64, eps=1e-05, momentum=0.1, affine=True, track_running_stats=True)
            (rearrage): Rearrange('b c h w -> b (h w) c')
          )
          (conv_proj_k): Sequential(
            (conv): Conv2d(64, 64, kernel_size=(3, 3), stride=(2, 2), padding=(1, 1), groups=64, bias=False)
            (bn): BatchNorm2d(64, eps=1e-05, momentum=0.1, affine=True, track_running_stats=True)
            (rearrage): Rearrange('b c h w -> b (h w) c')
          )
          (conv_proj_v): Sequential(
            (conv): Conv2d(64, 64, kernel_size=(3, 3), stride=(2, 2), padding=(1, 1), groups=64, bias=False)
            (bn): BatchNorm2d(64, eps=1e-05, momentum=0.1, affine=True, track_running_stats=True)
            (rearrage): Rearrange('b c h w -> b (h w) c')
          )
          (proj_q): Linear(in_features=64, out_features=64, bias=True)
          (proj_k): Linear(in_features=64, out_features=64, bias=True)
          (proj_v): Linear(in_features=64, out_features=64, bias=True)
          (attn_drop): Dropout(p=0.0, inplace=False)
          (proj): Linear(in_features=64, out_features=64, bias=True)
          (proj_drop): Dropout(p=0.0, inplace=False)
        )
        (drop_path): Identity()
        (norm2): LayerNorm((64,), eps=1e-05, elementwise_affine=True)
        (mlp): Mlp(
          (fc1): Linear(in_features=64, out_features=256, bias=True)
          (act): QuickGELU()
          (fc2): Linear(in_features=256, out_features=64, bias=True)
          (drop): Dropout(p=0.0, inplace=False)
        )
      )
    )
  )
  (stage1): VisionTransformer(
    (patch_embed): ConvEmbed(
      (proj): Conv2d(64, 192, kernel_size=(3, 3), stride=(2, 2), padding=(1, 1))
      (norm): LayerNorm((192,), eps=1e-05, elementwise_affine=True)
    )
    (pos_drop): Dropout(p=0.0, inplace=False)
    (blocks): ModuleList(
      (0): Block(
        (norm1): LayerNorm((192,), eps=1e-05, elementwise_affine=True)
        (attn): Attention(
          (conv_proj_q): Sequential(
            (conv): Conv2d(192, 192, kernel_size=(3, 3), stride=(1, 1), padding=(1, 1), groups=192, bias=False)
            (bn): BatchNorm2d(192, eps=1e-05, momentum=0.1, affine=True, track_running_stats=True)
            (rearrage): Rearrange('b c h w -> b (h w) c')
          )
          (conv_proj_k): Sequential(
            (conv): Conv2d(192, 192, kernel_size=(3, 3), stride=(2, 2), padding=(1, 1), groups=192, bias=False)
            (bn): BatchNorm2d(192, eps=1e-05, momentum=0.1, affine=True, track_running_stats=True)
            (rearrage): Rearrange('b c h w -> b (h w) c')
          )
          (conv_proj_v): Sequential(
            (conv): Conv2d(192, 192, kernel_size=(3, 3), stride=(2, 2), padding=(1, 1), groups=192, bias=False)
            (bn): BatchNorm2d(192, eps=1e-05, momentum=0.1, affine=True, track_running_stats=True)
            (rearrage): Rearrange('b c h w -> b (h w) c')
          )
          (proj_q): Linear(in_features=192, out_features=192, bias=True)
          (proj_k): Linear(in_features=192, out_features=192, bias=True)
          (proj_v): Linear(in_features=192, out_features=192, bias=True)
          (attn_drop): Dropout(p=0.0, inplace=False)
          (proj): Linear(in_features=192, out_features=192, bias=True)
          (proj_drop): Dropout(p=0.0, inplace=False)
        )
        (drop_path): Identity()
        (norm2): LayerNorm((192,), eps=1e-05, elementwise_affine=True)
        (mlp): Mlp(
          (fc1): Linear(in_features=192, out_features=768, bias=True)
          (act): QuickGELU()
          (fc2): Linear(in_features=768, out_features=192, bias=True)
          (drop): Dropout(p=0.0, inplace=False)
        )
      )
      (1): Block(
        (norm1): LayerNorm((192,), eps=1e-05, elementwise_affine=True)
        (attn): Attention(
          (conv_proj_q): Sequential(
            (conv): Conv2d(192, 192, kernel_size=(3, 3), stride=(1, 1), padding=(1, 1), groups=192, bias=False)
            (bn): BatchNorm2d(192, eps=1e-05, momentum=0.1, affine=True, track_running_stats=True)
            (rearrage): Rearrange('b c h w -> b (h w) c')
          )
          (conv_proj_k): Sequential(
            (conv): Conv2d(192, 192, kernel_size=(3, 3), stride=(2, 2), padding=(1, 1), groups=192, bias=False)
            (bn): BatchNorm2d(192, eps=1e-05, momentum=0.1, affine=True, track_running_stats=True)
            (rearrage): Rearrange('b c h w -> b (h w) c')
          )
          (conv_proj_v): Sequential(
            (conv): Conv2d(192, 192, kernel_size=(3, 3), stride=(2, 2), padding=(1, 1), groups=192, bias=False)
            (bn): BatchNorm2d(192, eps=1e-05, momentum=0.1, affine=True, track_running_stats=True)
            (rearrage): Rearrange('b c h w -> b (h w) c')
          )
          (proj_q): Linear(in_features=192, out_features=192, bias=True)
          (proj_k): Linear(in_features=192, out_features=192, bias=True)
          (proj_v): Linear(in_features=192, out_features=192, bias=True)
          (attn_drop): Dropout(p=0.0, inplace=False)
          (proj): Linear(in_features=192, out_features=192, bias=True)
          (proj_drop): Dropout(p=0.0, inplace=False)
        )
        (drop_path): Identity()
        (norm2): LayerNorm((192,), eps=1e-05, elementwise_affine=True)
        (mlp): Mlp(
          (fc1): Linear(in_features=192, out_features=768, bias=True)
          (act): QuickGELU()
          (fc2): Linear(in_features=768, out_features=192, bias=True)
          (drop): Dropout(p=0.0, inplace=False)
        )
      )
    )
  )
  (stage2): VisionTransformer(
    (patch_embed): ConvEmbed(
      (proj): Conv2d(192, 384, kernel_size=(3, 3), stride=(2, 2), padding=(1, 1))
      (norm): LayerNorm((384,), eps=1e-05, elementwise_affine=True)
    )
    (pos_drop): Dropout(p=0.0, inplace=False)
    (blocks): ModuleList(
      (0): Block(
        (norm1): LayerNorm((384,), eps=1e-05, elementwise_affine=True)
        (attn): Attention(
          (conv_proj_q): Sequential(
            (conv): Conv2d(384, 384, kernel_size=(3, 3), stride=(1, 1), padding=(1, 1), groups=384, bias=False)
            (bn): BatchNorm2d(384, eps=1e-05, momentum=0.1, affine=True, track_running_stats=True)
            (rearrage): Rearrange('b c h w -> b (h w) c')
          )
          (conv_proj_k): Sequential(
            (conv): Conv2d(384, 384, kernel_size=(3, 3), stride=(2, 2), padding=(1, 1), groups=384, bias=False)
            (bn): BatchNorm2d(384, eps=1e-05, momentum=0.1, affine=True, track_running_stats=True)
            (rearrage): Rearrange('b c h w -> b (h w) c')
          )
          (conv_proj_v): Sequential(
            (conv): Conv2d(384, 384, kernel_size=(3, 3), stride=(2, 2), padding=(1, 1), groups=384, bias=False)
            (bn): BatchNorm2d(384, eps=1e-05, momentum=0.1, affine=True, track_running_stats=True)
            (rearrage): Rearrange('b c h w -> b (h w) c')
          )
          (proj_q): Linear(in_features=384, out_features=384, bias=True)
          (proj_k): Linear(in_features=384, out_features=384, bias=True)
          (proj_v): Linear(in_features=384, out_features=384, bias=True)
          (attn_drop): Dropout(p=0.0, inplace=False)
          (proj): Linear(in_features=384, out_features=384, bias=True)
          (proj_drop): Dropout(p=0.0, inplace=False)
        )
        (drop_path): Identity()
        (norm2): LayerNorm((384,), eps=1e-05, elementwise_affine=True)
        (mlp): Mlp(
          (fc1): Linear(in_features=384, out_features=1536, bias=True)
          (act): QuickGELU()
          (fc2): Linear(in_features=1536, out_features=384, bias=True)
          (drop): Dropout(p=0.0, inplace=False)
        )
      )
      (1): Block(
        (norm1): LayerNorm((384,), eps=1e-05, elementwise_affine=True)
        (attn): Attention(
          (conv_proj_q): Sequential(
            (conv): Conv2d(384, 384, kernel_size=(3, 3), stride=(1, 1), padding=(1, 1), groups=384, bias=False)
            (bn): BatchNorm2d(384, eps=1e-05, momentum=0.1, affine=True, track_running_stats=True)
            (rearrage): Rearrange('b c h w -> b (h w) c')
          )
          (conv_proj_k): Sequential(
            (conv): Conv2d(384, 384, kernel_size=(3, 3), stride=(2, 2), padding=(1, 1), groups=384, bias=False)
            (bn): BatchNorm2d(384, eps=1e-05, momentum=0.1, affine=True, track_running_stats=True)
            (rearrage): Rearrange('b c h w -> b (h w) c')
          )
          (conv_proj_v): Sequential(
            (conv): Conv2d(384, 384, kernel_size=(3, 3), stride=(2, 2), padding=(1, 1), groups=384, bias=False)
            (bn): BatchNorm2d(384, eps=1e-05, momentum=0.1, affine=True, track_running_stats=True)
            (rearrage): Rearrange('b c h w -> b (h w) c')
          )
          (proj_q): Linear(in_features=384, out_features=384, bias=True)
          (proj_k): Linear(in_features=384, out_features=384, bias=True)
          (proj_v): Linear(in_features=384, out_features=384, bias=True)
          (attn_drop): Dropout(p=0.0, inplace=False)
          (proj): Linear(in_features=384, out_features=384, bias=True)
          (proj_drop): Dropout(p=0.0, inplace=False)
        )
        (drop_path): DropPath()
        (norm2): LayerNorm((384,), eps=1e-05, elementwise_affine=True)
        (mlp): Mlp(
          (fc1): Linear(in_features=384, out_features=1536, bias=True)
          (act): QuickGELU()
          (fc2): Linear(in_features=1536, out_features=384, bias=True)
          (drop): Dropout(p=0.0, inplace=False)
        )
      )
      (2): Block(
        (norm1): LayerNorm((384,), eps=1e-05, elementwise_affine=True)
        (attn): Attention(
          (conv_proj_q): Sequential(
            (conv): Conv2d(384, 384, kernel_size=(3, 3), stride=(1, 1), padding=(1, 1), groups=384, bias=False)
            (bn): BatchNorm2d(384, eps=1e-05, momentum=0.1, affine=True, track_running_stats=True)
            (rearrage): Rearrange('b c h w -> b (h w) c')
          )
          (conv_proj_k): Sequential(
            (conv): Conv2d(384, 384, kernel_size=(3, 3), stride=(2, 2), padding=(1, 1), groups=384, bias=False)
            (bn): BatchNorm2d(384, eps=1e-05, momentum=0.1, affine=True, track_running_stats=True)
            (rearrage): Rearrange('b c h w -> b (h w) c')
          )
          (conv_proj_v): Sequential(
            (conv): Conv2d(384, 384, kernel_size=(3, 3), stride=(2, 2), padding=(1, 1), groups=384, bias=False)
            (bn): BatchNorm2d(384, eps=1e-05, momentum=0.1, affine=True, track_running_stats=True)
            (rearrage): Rearrange('b c h w -> b (h w) c')
          )
          (proj_q): Linear(in_features=384, out_features=384, bias=True)
          (proj_k): Linear(in_features=384, out_features=384, bias=True)
          (proj_v): Linear(in_features=384, out_features=384, bias=True)
          (attn_drop): Dropout(p=0.0, inplace=False)
          (proj): Linear(in_features=384, out_features=384, bias=True)
          (proj_drop): Dropout(p=0.0, inplace=False)
        )
        (drop_path): DropPath()
        (norm2): LayerNorm((384,), eps=1e-05, elementwise_affine=True)
        (mlp): Mlp(
          (fc1): Linear(in_features=384, out_features=1536, bias=True)
          (act): QuickGELU()
          (fc2): Linear(in_features=1536, out_features=384, bias=True)
          (drop): Dropout(p=0.0, inplace=False)
        )
      )
      (3): Block(
        (norm1): LayerNorm((384,), eps=1e-05, elementwise_affine=True)
        (attn): Attention(
          (conv_proj_q): Sequential(
            (conv): Conv2d(384, 384, kernel_size=(3, 3), stride=(1, 1), padding=(1, 1), groups=384, bias=False)
            (bn): BatchNorm2d(384, eps=1e-05, momentum=0.1, affine=True, track_running_stats=True)
            (rearrage): Rearrange('b c h w -> b (h w) c')
          )
          (conv_proj_k): Sequential(
            (conv): Conv2d(384, 384, kernel_size=(3, 3), stride=(2, 2), padding=(1, 1), groups=384, bias=False)
            (bn): BatchNorm2d(384, eps=1e-05, momentum=0.1, affine=True, track_running_stats=True)
            (rearrage): Rearrange('b c h w -> b (h w) c')
          )
          (conv_proj_v): Sequential(
            (conv): Conv2d(384, 384, kernel_size=(3, 3), stride=(2, 2), padding=(1, 1), groups=384, bias=False)
            (bn): BatchNorm2d(384, eps=1e-05, momentum=0.1, affine=True, track_running_stats=True)
            (rearrage): Rearrange('b c h w -> b (h w) c')
          )
          (proj_q): Linear(in_features=384, out_features=384, bias=True)
          (proj_k): Linear(in_features=384, out_features=384, bias=True)
          (proj_v): Linear(in_features=384, out_features=384, bias=True)
          (attn_drop): Dropout(p=0.0, inplace=False)
          (proj): Linear(in_features=384, out_features=384, bias=True)
          (proj_drop): Dropout(p=0.0, inplace=False)
        )
        (drop_path): DropPath()
        (norm2): LayerNorm((384,), eps=1e-05, elementwise_affine=True)
        (mlp): Mlp(
          (fc1): Linear(in_features=384, out_features=1536, bias=True)
          (act): QuickGELU()
          (fc2): Linear(in_features=1536, out_features=384, bias=True)
          (drop): Dropout(p=0.0, inplace=False)
        )
      )
      (4): Block(
        (norm1): LayerNorm((384,), eps=1e-05, elementwise_affine=True)
        (attn): Attention(
          (conv_proj_q): Sequential(
            (conv): Conv2d(384, 384, kernel_size=(3, 3), stride=(1, 1), padding=(1, 1), groups=384, bias=False)
            (bn): BatchNorm2d(384, eps=1e-05, momentum=0.1, affine=True, track_running_stats=True)
            (rearrage): Rearrange('b c h w -> b (h w) c')
          )
          (conv_proj_k): Sequential(
            (conv): Conv2d(384, 384, kernel_size=(3, 3), stride=(2, 2), padding=(1, 1), groups=384, bias=False)
            (bn): BatchNorm2d(384, eps=1e-05, momentum=0.1, affine=True, track_running_stats=True)
            (rearrage): Rearrange('b c h w -> b (h w) c')
          )
          (conv_proj_v): Sequential(
            (conv): Conv2d(384, 384, kernel_size=(3, 3), stride=(2, 2), padding=(1, 1), groups=384, bias=False)
            (bn): BatchNorm2d(384, eps=1e-05, momentum=0.1, affine=True, track_running_stats=True)
            (rearrage): Rearrange('b c h w -> b (h w) c')
          )
          (proj_q): Linear(in_features=384, out_features=384, bias=True)
          (proj_k): Linear(in_features=384, out_features=384, bias=True)
          (proj_v): Linear(in_features=384, out_features=384, bias=True)
          (attn_drop): Dropout(p=0.0, inplace=False)
          (proj): Linear(in_features=384, out_features=384, bias=True)
          (proj_drop): Dropout(p=0.0, inplace=False)
        )
        (drop_path): DropPath()
        (norm2): LayerNorm((384,), eps=1e-05, elementwise_affine=True)
        (mlp): Mlp(
          (fc1): Linear(in_features=384, out_features=1536, bias=True)
          (act): QuickGELU()
          (fc2): Linear(in_features=1536, out_features=384, bias=True)
          (drop): Dropout(p=0.0, inplace=False)
        )
      )
      (5): Block(
        (norm1): LayerNorm((384,), eps=1e-05, elementwise_affine=True)
        (attn): Attention(
          (conv_proj_q): Sequential(
            (conv): Conv2d(384, 384, kernel_size=(3, 3), stride=(1, 1), padding=(1, 1), groups=384, bias=False)
            (bn): BatchNorm2d(384, eps=1e-05, momentum=0.1, affine=True, track_running_stats=True)
            (rearrage): Rearrange('b c h w -> b (h w) c')
          )
          (conv_proj_k): Sequential(
            (conv): Conv2d(384, 384, kernel_size=(3, 3), stride=(2, 2), padding=(1, 1), groups=384, bias=False)
            (bn): BatchNorm2d(384, eps=1e-05, momentum=0.1, affine=True, track_running_stats=True)
            (rearrage): Rearrange('b c h w -> b (h w) c')
          )
          (conv_proj_v): Sequential(
            (conv): Conv2d(384, 384, kernel_size=(3, 3), stride=(2, 2), padding=(1, 1), groups=384, bias=False)
            (bn): BatchNorm2d(384, eps=1e-05, momentum=0.1, affine=True, track_running_stats=True)
            (rearrage): Rearrange('b c h w -> b (h w) c')
          )
          (proj_q): Linear(in_features=384, out_features=384, bias=True)
          (proj_k): Linear(in_features=384, out_features=384, bias=True)
          (proj_v): Linear(in_features=384, out_features=384, bias=True)
          (attn_drop): Dropout(p=0.0, inplace=False)
          (proj): Linear(in_features=384, out_features=384, bias=True)
          (proj_drop): Dropout(p=0.0, inplace=False)
        )
        (drop_path): DropPath()
        (norm2): LayerNorm((384,), eps=1e-05, elementwise_affine=True)
        (mlp): Mlp(
          (fc1): Linear(in_features=384, out_features=1536, bias=True)
          (act): QuickGELU()
          (fc2): Linear(in_features=1536, out_features=384, bias=True)
          (drop): Dropout(p=0.0, inplace=False)
        )
      )
      (6): Block(
        (norm1): LayerNorm((384,), eps=1e-05, elementwise_affine=True)
        (attn): Attention(
          (conv_proj_q): Sequential(
            (conv): Conv2d(384, 384, kernel_size=(3, 3), stride=(1, 1), padding=(1, 1), groups=384, bias=False)
            (bn): BatchNorm2d(384, eps=1e-05, momentum=0.1, affine=True, track_running_stats=True)
            (rearrage): Rearrange('b c h w -> b (h w) c')
          )
          (conv_proj_k): Sequential(
            (conv): Conv2d(384, 384, kernel_size=(3, 3), stride=(2, 2), padding=(1, 1), groups=384, bias=False)
            (bn): BatchNorm2d(384, eps=1e-05, momentum=0.1, affine=True, track_running_stats=True)
            (rearrage): Rearrange('b c h w -> b (h w) c')
          )
          (conv_proj_v): Sequential(
            (conv): Conv2d(384, 384, kernel_size=(3, 3), stride=(2, 2), padding=(1, 1), groups=384, bias=False)
            (bn): BatchNorm2d(384, eps=1e-05, momentum=0.1, affine=True, track_running_stats=True)
            (rearrage): Rearrange('b c h w -> b (h w) c')
          )
          (proj_q): Linear(in_features=384, out_features=384, bias=True)
          (proj_k): Linear(in_features=384, out_features=384, bias=True)
          (proj_v): Linear(in_features=384, out_features=384, bias=True)
          (attn_drop): Dropout(p=0.0, inplace=False)
          (proj): Linear(in_features=384, out_features=384, bias=True)
          (proj_drop): Dropout(p=0.0, inplace=False)
        )
        (drop_path): DropPath()
        (norm2): LayerNorm((384,), eps=1e-05, elementwise_affine=True)
        (mlp): Mlp(
          (fc1): Linear(in_features=384, out_features=1536, bias=True)
          (act): QuickGELU()
          (fc2): Linear(in_features=1536, out_features=384, bias=True)
          (drop): Dropout(p=0.0, inplace=False)
        )
      )
      (7): Block(
        (norm1): LayerNorm((384,), eps=1e-05, elementwise_affine=True)
        (attn): Attention(
          (conv_proj_q): Sequential(
            (conv): Conv2d(384, 384, kernel_size=(3, 3), stride=(1, 1), padding=(1, 1), groups=384, bias=False)
            (bn): BatchNorm2d(384, eps=1e-05, momentum=0.1, affine=True, track_running_stats=True)
            (rearrage): Rearrange('b c h w -> b (h w) c')
          )
          (conv_proj_k): Sequential(
            (conv): Conv2d(384, 384, kernel_size=(3, 3), stride=(2, 2), padding=(1, 1), groups=384, bias=False)
            (bn): BatchNorm2d(384, eps=1e-05, momentum=0.1, affine=True, track_running_stats=True)
            (rearrage): Rearrange('b c h w -> b (h w) c')
          )
          (conv_proj_v): Sequential(
            (conv): Conv2d(384, 384, kernel_size=(3, 3), stride=(2, 2), padding=(1, 1), groups=384, bias=False)
            (bn): BatchNorm2d(384, eps=1e-05, momentum=0.1, affine=True, track_running_stats=True)
            (rearrage): Rearrange('b c h w -> b (h w) c')
          )
          (proj_q): Linear(in_features=384, out_features=384, bias=True)
          (proj_k): Linear(in_features=384, out_features=384, bias=True)
          (proj_v): Linear(in_features=384, out_features=384, bias=True)
          (attn_drop): Dropout(p=0.0, inplace=False)
          (proj): Linear(in_features=384, out_features=384, bias=True)
          (proj_drop): Dropout(p=0.0, inplace=False)
        )
        (drop_path): DropPath()
        (norm2): LayerNorm((384,), eps=1e-05, elementwise_affine=True)
        (mlp): Mlp(
          (fc1): Linear(in_features=384, out_features=1536, bias=True)
          (act): QuickGELU()
          (fc2): Linear(in_features=1536, out_features=384, bias=True)
          (drop): Dropout(p=0.0, inplace=False)
        )
      )
      (8): Block(
        (norm1): LayerNorm((384,), eps=1e-05, elementwise_affine=True)
        (attn): Attention(
          (conv_proj_q): Sequential(
            (conv): Conv2d(384, 384, kernel_size=(3, 3), stride=(1, 1), padding=(1, 1), groups=384, bias=False)
            (bn): BatchNorm2d(384, eps=1e-05, momentum=0.1, affine=True, track_running_stats=True)
            (rearrage): Rearrange('b c h w -> b (h w) c')
          )
          (conv_proj_k): Sequential(
            (conv): Conv2d(384, 384, kernel_size=(3, 3), stride=(2, 2), padding=(1, 1), groups=384, bias=False)
            (bn): BatchNorm2d(384, eps=1e-05, momentum=0.1, affine=True, track_running_stats=True)
            (rearrage): Rearrange('b c h w -> b (h w) c')
          )
          (conv_proj_v): Sequential(
            (conv): Conv2d(384, 384, kernel_size=(3, 3), stride=(2, 2), padding=(1, 1), groups=384, bias=False)
            (bn): BatchNorm2d(384, eps=1e-05, momentum=0.1, affine=True, track_running_stats=True)
            (rearrage): Rearrange('b c h w -> b (h w) c')
          )
          (proj_q): Linear(in_features=384, out_features=384, bias=True)
          (proj_k): Linear(in_features=384, out_features=384, bias=True)
          (proj_v): Linear(in_features=384, out_features=384, bias=True)
          (attn_drop): Dropout(p=0.0, inplace=False)
          (proj): Linear(in_features=384, out_features=384, bias=True)
          (proj_drop): Dropout(p=0.0, inplace=False)
        )
        (drop_path): DropPath()
        (norm2): LayerNorm((384,), eps=1e-05, elementwise_affine=True)
        (mlp): Mlp(
          (fc1): Linear(in_features=384, out_features=1536, bias=True)
          (act): QuickGELU()
          (fc2): Linear(in_features=1536, out_features=384, bias=True)
          (drop): Dropout(p=0.0, inplace=False)
        )
      )
      (9): Block(
        (norm1): LayerNorm((384,), eps=1e-05, elementwise_affine=True)
        (attn): Attention(
          (conv_proj_q): Sequential(
            (conv): Conv2d(384, 384, kernel_size=(3, 3), stride=(1, 1), padding=(1, 1), groups=384, bias=False)
            (bn): BatchNorm2d(384, eps=1e-05, momentum=0.1, affine=True, track_running_stats=True)
            (rearrage): Rearrange('b c h w -> b (h w) c')
          )
          (conv_proj_k): Sequential(
            (conv): Conv2d(384, 384, kernel_size=(3, 3), stride=(2, 2), padding=(1, 1), groups=384, bias=False)
            (bn): BatchNorm2d(384, eps=1e-05, momentum=0.1, affine=True, track_running_stats=True)
            (rearrage): Rearrange('b c h w -> b (h w) c')
          )
          (conv_proj_v): Sequential(
            (conv): Conv2d(384, 384, kernel_size=(3, 3), stride=(2, 2), padding=(1, 1), groups=384, bias=False)
            (bn): BatchNorm2d(384, eps=1e-05, momentum=0.1, affine=True, track_running_stats=True)
            (rearrage): Rearrange('b c h w -> b (h w) c')
          )
          (proj_q): Linear(in_features=384, out_features=384, bias=True)
          (proj_k): Linear(in_features=384, out_features=384, bias=True)
          (proj_v): Linear(in_features=384, out_features=384, bias=True)
          (attn_drop): Dropout(p=0.0, inplace=False)
          (proj): Linear(in_features=384, out_features=384, bias=True)
          (proj_drop): Dropout(p=0.0, inplace=False)
        )
        (drop_path): DropPath()
        (norm2): LayerNorm((384,), eps=1e-05, elementwise_affine=True)
        (mlp): Mlp(
          (fc1): Linear(in_features=384, out_features=1536, bias=True)
          (act): QuickGELU()
          (fc2): Linear(in_features=1536, out_features=384, bias=True)
          (drop): Dropout(p=0.0, inplace=False)
        )
      )
    )
  )
  (norm): LayerNorm((384,), eps=1e-05, elementwise_affine=True)
  (head): Linear(in_features=384, out_features=1000, bias=True)
)
2022-12-24 15:38:52,739:[P:36664]:Rank[0/1] Trainable Model Total Parameter: 	20.0M
2022-12-24 15:38:52,754:[P:36664]:Rank[0/1] => loading checkpoint 'OUTPUT/imagenet/cvt-13-224x224_cifar100/checkpoint.pth'
2022-12-24 15:38:53,207:[P:36664]:Rank[0/1] => Rank[0/1]: loaded checkpoint 'OUTPUT/imagenet/cvt-13-224x224_cifar100/checkpoint.pth' (epoch: 100)
…
